mnist_net.pth (torch, 180231 bytes, 10 tensors)

conv1.weight f4 [6, 1, 5, 5]
00000000: 2373 babe db64 12be f277 a63d 6889 a23e
00000010: 3f98 5e3e d734 9bbe 6f0b 85be 50d7 cd3d
00000020: c223 a53e 7d8d 4abd 7992 c6be fe21 54be
00000030: 61ce 633e de08 843e a2c9 483e c0a0 e4bd
00000040: 2c38 85bd 342a cf3d 69f1 293e 5a0e 443d
00000050: ee42 8ebe 29ec 0b3e f1ca 9b3e a78d 8fbd
00000060: 285d 1bbe 79a1 f63e 23de 0b3f 5863 1a3e
00000070: b8fe 83be 0f6a b3be 1979 f03e 1806 813e
00000080: 5c70 febd ace3 88be feea 8bbe e0a5 083f
00000090: bf3d cb3e 8524 8bbe 23d0 d2bd d62d 88be
000000a0: f630 9b3e 0fa3 753d 0823 1cbe d200 4dbe
000000b0: a4f5 63be 7708 bd3e eb36 893d 221e 61bd
000000c0: be20 51be 3a8f 103d 1609 96bd 47c1 78bd
000000d0: 863b 903c a4cf 863b 3e9e f2bc 92b7 4dbe
000000e0: bf4f 9bbe c2f4 8abe 661b 663d 032d df3d
000000f0: 5a90 9cbd 6372 39be d7eb c3bd d350 07be
00000100: b2bf 833e 10ab 583d 540c e5bd bff3 6b3e
00000110: 7797 953e babd bd3e 9e6a 2b3e f410 a13d
00000120: ceee febd ff73 0a3e afab 8a3e 1533 d7bd
00000130: 0dec 21be 7ca3 afbe 2036 bcbe 3811 7fbd
00000140: d505 4bbe f877 68be 69b9 02bf 907c 16bf
00000150: 378e b5be cfdc edbe f286 a1be e092 03bf
00000160: 814f 12bf 2ec1 5abe 2f5f 9ebe 575b d0be
00000170: 3882 00bf dfdf aabe 12f0 5abe 451e 99be
00000180: 1707 edbe 1b14 adbe 778c 92bb 8afd 033e
00000190: 0f76 69bd e65d db3d e1d9 fd3d 8681 783e
000001a0: d0af 763e 93b3 8a3e 9e56 883e 5bd1 c8bc
000001b0: e8cb f53d 7dd6 ac3e 8495 943e 44fc 553e
000001c0: c9ae 86bd 81f3 46be 5a6a 8ebe 5fd3 d9bd
000001d0: e378 5ebe aa5c 40bd d1aa 0fbe bc37 c1be
000001e0: a0db a7bd 133f 58be df29 05be c94a bebc
000001f0: 203b 103d 028d 053e f604 5d3c 4173 e33d
00000200: 1f70 8ebe 5491 53be d05a 223e 98b6 ae3c
00000210: 6ddd e9bd e137 3cbe 3bda 27be 6d9f 5c3d
00000220: cdf4 aa3d dfd5 833d 9acf a53e 9587 273e
00000230: 4360 b9bd 6848 45be 852a 81bd 3f6b 033e
00000240: a77e 943e 9465 3d3e f51b 01bd d8a0 ecbd
00000250: 0bbd 0c3c d0cc 9dbe
-0.36415967 -0.14296286 0.081283465 0.31745458 0.21737765 -0.3031375 -0.25985286 0.10050833
0.32253844 -0.04945134 -0.38783625 -0.20716092 0.22246696 0.25788015 0.19608167 -0.11163473
-0.065048546 0.101154715 0.16595997 0.04786525 -0.27785438 0.13664307 0.3042827 -0.0700944
-0.15172255 0.4817007 0.5463583 0.15076959 -0.25780272 -0.35041854 0.4696739 0.25199962
-0.124237746 -0.267362 -0.27327722 0.53378105 0.39695546 -0.271763 -0.10293605 -0.2659747
0.30310792 0.059969958 -0.15247738 -0.20019844 -0.22261673 0.3692052 0.06699928 -0.054960378
-0.20422646 0.03529284 -0.07325952 -0.0607312 0.017606508 0.004114108 -0.029616471 -0.20089558
-0.3033428 -0.2713986 0.056178473 0.10897257 -0.076447204 -0.18110041 -0.09566467 -0.13214426
0.2573219 0.052897513 -0.11183992 0.230422 0.2921712 0.37058812 0.1673989 0.07864562
-0.12447892 0.13520811 0.2708411 -0.1050779 -0.15812702 -0.34304416 -0.36760044 -0.06227228
-0.19826443 -0.22702014 -0.51064163 -0.5878382 -0.35460064 -0.46457526 -0.31548268 -0.5139599
-0.57152563 -0.21362755 -0.30931994 -0.40694687 -0.501987 -0.33373925 -0.21380642 -0.29905906
-0.46294472 -0.33804402 -0.004472311 0.12889686 -0.056997355 0.10711269 0.12395073 0.2426816
0.24090505 0.2709013 0.26628584 -0.024513891 0.12001783 0.33757392 0.2902032 0.20897013
-0.065763064 -0.19428827 -0.27815515 -0.10636019 -0.21725802 -0.04696337 -0.14030005 -0.37737834
-0.08196187 -0.21117811 -0.13004254 -0.02322902 0.035212636 0.13042071 0.013489952 0.11105967
-0.27819917 -0.20660907 0.15854955 0.021327302 -0.11419187 -0.18380691 -0.16391842 0.053862978
0.08347473 0.06437277 0.3238495 0.16360314 -0.090515636 -0.19265902 -0.06306938 0.1283388
0.29002878 0.1849578 -0.031520803 -0.11554116 0.008589993 -0.30820322

conv1.bias f4 [6]
00000000: 5339 6d3d 618d 933e 0ad7 c03e 0153 9b3d
00000010: ff9d 913e 2198 b93b
0.057915997 0.288188 0.37664062 0.07584191 0.28440854 0.005663887

conv2.weight f4 [16, 6, 5, 5]
00000000: 77e6 21bb 4c44 ca3d d586 1abb e715 83bd
00000010: 03b0 b33d c0c7 633d d6a0 8ebc 6156 9abc
00000020: 8ad7 98bd 24f0 a6bd aefa 23bd 4dfb 8ebd
00000030: 18ad d0bd 4b4c 1c3c 30d9 4c3d 9724 8bbc
00000040: a32d 9fbc 8177 03bd 7d61 efbd d71a 613b
00000050: 641d 75bc 1547 e43d c6b5 733d 8ad2 6a3c
00000060: f2b7 b8bd a78d 65bd 6d3f 25bd a5bb eb3d
00000070: 6dff 9b3d 725b 16bb 25b3 31bd 3f7b 143d
00000080: e72f ddbc ff6b 863d d6ac 82bd 5adf 8d3c
00000090: 9c74 6abd d95f b53c 57bc a83b def7 2dbd
000000a0: 5f61 5cbc fc99 9ebc 5f23 6ebd 9e04 80bd
000000b0: 9a64 493d 5e1e 333d e011 66bc 2a96 2c3d
000000c0: 53a1 d5bc d3ba 583c bd02 4fbd c6c7 00bd
000000d0: 5e4c 153d e8fd a6bd b214 acbd 2520 9a3d
000000e0: c5bb 5a3b d079 5e3d 00be 853d e66c 3d3d
000000f0: e802 de3d ead4 1a3d 0da6 7bbc 34bd 05bd
00000100: 7e0d c63d 88d0 f43d 8c6a cf3c 2989 6a3d
00000110: 0ed4 773d c8a7 853d 5364 e43c 72cd 143c
00000120: 80cd ef3a 958c 52bd 833c 4fbd ed04 533e
00000130: b3b0 a53d 0db5 abbc b2fb 1e3e d167 da3d
00000140: 063c 273e 5120 6f3e df62 073e 99de 543e
00000150: d3c4 1f3e e072 273d 57e4 dc3d 82a2 50bc
00000160: 5e54 5cbd c81e fe3b b2a2 15be 54b6 56be
00000170: dd38 5ebe dce2 ffbd 3f91 fbbd 4b92 28bd
00000180: 23e3 77bc 1b3b 15be 9346 09be f5e6 60be
00000190: dcee 6f3c f265 0bbd 4807 f83c aae3 bf3d
000001a0: 3790 0b3d 2a97 cf3b c632 fe3b 0eec bbbc
000001b0: 238a 37bc 0994 583c 2094 b7bd 7acc 91bd
000001c0: 9bb4 8f3b 74e3 a3bd 1784 723b 5c77 4dbd
000001d0: 75b5 13bd 14e6 8abb 85e2 c0bc 470e 2bbd
000001e0: 50d1 ff3d ff80 db3d a660 c23b 1f90 f63d
000001f0: 478e f53d 8bfd 303d 803a aabd 747e 7fbd
00000200: 85e0 893d 65c4 8dbd f836 2d3d 5048 92bc
00000210: cc05 01bd e3df f63c 163b 09bd b89b 81bd
00000220: b9f7 5abd 8e7a 753c 2641 4a3c 6e8e cf3c
00000230: 8b3c 72bd dd58 e23c 37df ec3a f859 50bd
00000240: 11b8 8f3d 0a93 2dbd e790 113d 08b0 7d3d
00000250: 6806 8f3c 5eeb 5abd 8c03 983d d7a4 48b9
00000260: 1b08 88bd 9547 35bd eff1 b7bc 44c5 043c
00000270: c7a4 893d 0b48 68bd f2cc 033d 2a35 47bd
00000280: ccef 41bd 973d 3b3d 183f b13b 848d 47bd
00000290: f90c d03c 5af1 253d 3612 a0bd 4482 90bd
000002a0: c275 70bd 04d2 41bd a949 5fbd 92ce fbbc
000002b0: b88a 9f3d 4aff 653d 2278 5d3d a0d8 a1bd
000002c0: c6d7 f83c b452 a4bd e76c f5ba 76d9 c4bc
000002d0: b001 133c 9948 713c 59d4 493a 2c9f 2a3d
000002e0: 246d 0f3d 3d49 eabc b202 ddbc ce80 b13c
000002f0: dcd7 393d f1d7 f43d 1345 b4bd ca37 32bd
00000300: 4e00 61bd 8705 91bd 98f1 4f3d 3b16 9fbd
00000310: 2d30 013c 84dd edbc 626e 2cbd ebb0 4c3d
00000320: 8c7e ccbc b2a8 813b 0a7c ba3d 421c bdbc
00000330: 30f7 ba3c e9d9 383d e24e 09bd 4d6e 11bd
00000340: 20e1 0dbd fcee 5b3c e838 76bc 3973 55bd
00000350: 75aa fa3c 3d85 23bd 967e 6c3d 369a e43c
00000360: 361f d53c 568f cf3d e31e 453d 1473 653a
00000370: 4a79 91bc 5a22 0abd dcd0 94bd b86f 8cbd
00000380: c8f1 9f3c cd67 21be ebb2 6ebe 379d 7fbe
00000390: 2616 6abe 6458 2fbe 31b6 8abc 21c7 2abd
000003a0: f1cc 6fbd f77a 7abd f950 713c d6f6 3f3e
000003b0: 945f 283e 0907 013e 3c36 ce3d 15b9 063e
000003c0: a14c de3d d0dd 1b3e 0271 fb3d 801f 3f3e
000003d0: 09ac 043e 8702 b53c d4e7 8abd bcd1 48bc
000003e0: 5422 46bc 61a0 a93d feb6 a63d ad7d 633d
000003f0: af00 b03d 04f2 be3c 6f7b f93b 3e54 713d
-0.0024704018 0.09876308 -0.0023578901 -0.06400662 0.08773806 0.05561042 -0.017410677 -0.018840017
-0.07462986 -0.08151272 -0.04003399 -0.069815256 -0.10189265 0.009539674 0.050011814 -0.01698522
-0.019430941 -0.03209639 -0.11688516 0.0034348273 -0.014960621 0.1114637 0.059499525 0.014332423
-0.0901946 -0.056043293 -0.04034369 0.115104 0.07617078 -0.002294269 -0.043383736 0.03625035
-0.02700038 0.06563567 -0.06380622 0.017318416 -0.057240114 0.02214043 0.005149405 -0.042472713
-0.013450949 -0.019360535 -0.0581392 -0.06250881 0.049168207 0.043730132 -0.014042348 0.042135395
-0.026077902 0.013228136 -0.05053972 -0.03144052 0.036449783 -0.081538975 -0.08402385 0.07525662
0.003337608 0.05431539 0.0653038 0.04624643 0.10840398 0.037800707 -0.015359414 -0.03265114
0.09670542 0.11953837 0.02531936 0.057259712 0.060504965 0.06526142 0.02787987 0.009082185
0.0018295497 -0.0514036 -0.050594818 0.20607348 0.08090343 -0.020960355 0.15525702 0.10664333
0.16331491 0.23352171 0.1322131 0.2078804 0.15602426 0.040881038 0.1078574 -0.012734057
-0.053791396 0.0077551343 -0.14612845 -0.2096799 -0.21701379 -0.12494442 -0.12283563 -0.04115514
-0.015129837 -0.14573328 -0.13405828 -0.21963103 0.014644351 -0.03403277 0.03027691 0.09369595
0.03407308 0.006335159 0.0077575175 -0.022939708 -0.011202368 0.013218888 -0.089637995 -0.07119079
0.0043855435 -0.080023676 0.0037005001 -0.050162658 -0.036061723 -0.004238853 -0.023545513 -0.041761663
0.12491095 0.107179634 0.0059319315 0.12039208 0.11990028 0.043210547 -0.08311939 -0.062376454
0.06732277 -0.06922225 0.04228875 -0.017856747 -0.03149967 0.030136054 -0.033503614 -0.06328529
-0.053458903 0.014982833 0.012344634 0.02533647 -0.05913977 0.027630264 0.0018071894 -0.05086705
0.0701753 -0.042376556 0.03553858 0.061935455 0.01745911 -0.05344712 0.074225515 -0.00019134894
-0.06642171 -0.04425772 -0.02245423 0.008103672 0.06720882 -0.05670933 0.032177873 -0.048634686
-0.04734783 0.045713034 0.0054091327 -0.048718944 0.02539681 0.040513374 -0.078159735 -0.07056096
-0.058706053 -0.047319427 -0.054513607 -0.030738149 0.077901304 0.056151666 0.054069646 -0.07902646
0.030376326 -0.08023587 -0.0018724472 -0.024029475 0.00897257 0.014726781 0.0007699184 0.041655704
0.035016194 -0.028599376 -0.026978824 0.021667864 0.045371875 0.1195525 -0.08802237 -0.043510236
-0.05493193 -0.070811324 0.05076751 -0.07767912 0.007885021 -0.029036291 -0.042097457 0.04997341
-0.024962686 0.0039568776 0.0910569 -0.023084763 0.022822946 0.04512969 -0.033522494 -0.03550558
-0.034638524 0.0134236775 -0.015028216 -0.052111838 0.030598858 -0.039921988 0.05773791 0.027905565
0.02601586 0.10134761 0.04812516 0.0008752805 -0.01775803 -0.033724166 -0.07266399 -0.06857246
0.01952447 -0.15762253 -0.2331044 -0.24962316 -0.22860011 -0.17123562 -0.016932579 -0.04169381
-0.058545057 -0.061152425 0.014728778 0.18746504 0.1644271 0.1260034 0.10068938 0.1315654
0.108544596 0.15221334 0.12277414 0.1866436 0.12956251 0.022095932 -0.06782499 -0.012257036
-0.012093145 0.08282543 0.08140372 0.055539776 0.085938804 0.023308761 0.0076135914 0.05891823

conv2.bias f4 [16]
00000000: 1b62 db3c 80a2 cebc ef39 93bd a4ed 70bd
00000010: 31bb ab3d 7d84 d93c 5536 883d d890 653b
00000020: e298 893d 5964 91bd 42b1 1ebc 2067 36bd
00000030: 16c8 21bd bc8c 86bc 74e7 73bd ac3a 523c
0.026780179 -0.02522397 -0.07188784 -0.05882038 0.08385313 0.026552433 0.06650988 0.003502896
0.06718613 -0.07099218 -0.009685816 -0.04453194 -0.039497457 -0.01642453 -0.059546903 0.012831371

fc1.weight f4 [128, 256]
00000000: 624f 64bd 653c 2c3d f8db 86bd c17e 053c
00000010: eb1e 1ebc 5067 563d 13dd 5b3d e9fc 923d
00000020: 5fe4 fabc 5be4 813b 76f6 7e3d 94ea 453d
00000030: 45eb 9bbd b7e9 3cbd 9f08 8ebc d5ea 2dbd
00000040: abda a2bc 15e1 7f3c 12b0 e2bc 04ee 17bd
00000050: 9761 9cbc 2018 93ba 2fb1 b6bd 2a8d cdbd
00000060: ba84 5d3d b028 383d 9bc3 5fbc e772 a6bd
00000070: 64dc c53c f3ae 8abd aecc 503c 1159 843d
00000080: e7cc 8abd 4302 4b3d 376c ee3a 9fd0 a63d
00000090: df09 fd3b a4eb f5bc cf1e f93a 4b8b 543d
000000a0: 4f6f 893b 889e 7e3d 431c 96ba fd7d d63c
000000b0: 6cbb 273d d7c4 8d3d 0200 503d 41b3 58bd
000000c0: 5615 783c f5d8 6a3a 1c70 163e de0c e03c
000000d0: 9dd1 a1bc 3536 c23d c8bb a43d 32f5 b33c
000000e0: 2410 883d cf35 04bd a281 27bc e4bf 953c
000000f0: 6639 853c 5a2b 893d 9c40 eabc 17c9 e5bd
00000100: ca3e 9c3d 361c 64bc cad8 88bc 651d 16bd
00000110: 55e1 acbc fb02 c63c 850d 1e3d a5f7 123c
00000120: 5a0f e53b f11e ecbc 0711 b5bc eb74 10bd
00000130: fccb e73c 06e2 6fbd f45d 8c3c fefe 96bc
00000140: 70ba a53c 76ab fe3c 2a5f 98bc ae1d 82bb
00000150: 7e85 b13c bc08 7ebd c1cd 2f3d ea75 03bd
00000160: 08a8 cdbb de62 513d 71ac b73c 0d0b 3a3d
00000170: 26f6 9cbd d1ff 543d 2635 813c 08fc 2dbc
00000180: 6804 a13c 73a5 803d 4e5c c63c b4db b13d
00000190: 752a 3c3d bf4a 55bc 1781 7b3d 1d45 333c
000001a0: e66f 0abd 2653 5d3c f20e ef3b 16b7 22bd
000001b0: 776c 45bd b2c0 e33b 0e40 1fbd d6bc bebc
000001c0: cf90 323d be9c 153d 0159 7ebd c0a8 88bb
000001d0: 0938 293d 0280 853d cecf a8bd 81a7 4fbc
000001e0: a5a3 83bc 49b6 0b3d 32fe 273c b57e 53bd
000001f0: 0b45 f6bc 2573 953d 1da4 a63c 9ca8 423d
00000200: 2dcd 6fba 3c03 6c3d 3330 af3b a208 393c
00000210: 023c b33c aa6b 1f3c c4dd 083d 45eb 253d
00000220: d9d5 20bd ac19 4dbd 997f fc3c 23ff 47bd
00000230: c77a 913d 8334 bb3d 8d8b 42bd a4e8 4ebc
00000240: f6d4 3abd bcfe 8a3d 3f38 e53c 52d6 c3ba
00000250: 6010 74bd 4dd9 93bd 4963 eabc 30f2 c93d
00000260: b2a2 aabb 4999 82bc 61f3 703d a0a8 05bd
00000270: 2da5 623d 3221 733d 09e7 04bd 6fc4 a0bd
00000280: d2ac 243d e962 9a3c f3f5 3bbd 38e5 1dbd
00000290: eaf7 2b3d be64 3abc 513c 6cbd 9ae9 003d
000002a0: a7be b9b9 efcb f6bb fd78 e33c dcee 53bc
000002b0: 8eac 863c 4ee0 11bb 3876 29bd 0be3 9fbc
000002c0: 9a70 023c 0029 96ba 65d4 a83d 99d1 883d
000002d0: bdd3 9d3c 73c9 093d 2337 11bd 534c 15bd
000002e0: 64cf 3fbd d2cf 7d3a 32d4 b63c 4e85 1cbd
000002f0: 14fc 133d 4202 11bd de59 0f3c efe3 1fbd
00000300: 2f32 e5bc 5c1d 0fbd 97b6 993c 9e45 3a3d
00000310: 009a b93c 9ed8 813d 2d9d 3ebd d71c 6d3d
00000320: 7ced bbbc d8b6 53bd 63f4 4abd 64a8 693c
00000330: 0e55 10bd f524 8fbd 087f 19bd 500d 53bd
00000340: ff0f cebc 4a19 863d beb5 613c f74c 593c
00000350: be24 a83b 06b1 84bd e82a 50bc b677 39ba
00000360: 7a04 f03b a720 b0bd 2c5f c8bc 94ca 3f3d
00000370: 8220 a2bc 5688 5f3b 2a43 193d 8286 37ba
00000380: 3438 67bc bb44 843d 7b6b 41bc 40af 21bd
00000390: 9e18 0bbd c2f8 5a3c 41a3 3c3d 3fee 04bd
000003a0: 7ef8 9cbc c127 553c bd74 dfbc 4a14 b03c
000003b0: 2632 6dbb fdb1 a73c af53 eebc af2d 2a3d
000003c0: 557a ab3c 5661 7f3c b0d7 9a3d 3e19 893c
000003d0: 0406 9dbd 963f 213d 4245 1b3c d4a6 dd3c
000003e0: b3bb 343d e940 223b f90a 123a 8f60 fbbd
000003f0: a9b8 693d 6aef 3a3d 7f3a 4abd 0919 f3bd
-0.055739768 0.042049784 -0.065849245 0.008147896 -0.009650926 0.05234462 0.05367763 0.07177145
-0.030626474 0.0039639897 0.062246762 0.048319414 -0.076132335 -0.046121325 -0.017338095 -0.04246028
-0.01987966 0.015617629 -0.027671847 -0.037092224 -0.019089503 -0.00112224 -0.08920514 -0.100366905
0.054081656 0.044960678 -0.013657476 -0.08127385 0.024152942 -0.0677165 0.012744112 0.064623006
-0.06777363 0.049562704 0.001819021 0.0814526 0.007722124 -0.030019589 0.0019006374 0.051890653
0.004194177 0.062162906 -0.0011452514 0.026183123 0.040950224 0.0692231 0.050781257 -0.052905325
0.015141806 0.0008958721 0.14691204 0.027349886 -0.019753272 0.094829954 0.08043629 0.021967504
0.066437036 -0.03227788 -0.010223778 0.018279977 0.016262721 0.06697722 -0.028595261 -0.112199955
0.076291636 -0.013922742 -0.016704936 -0.036649127 -0.02110354 0.024171343 0.038587112 0.008970176
0.0069903554 -0.028823348 -0.022102846 -0.03526775 0.02829551 -0.058565162 0.017134644 -0.018432137
0.020230502 0.031087618 -0.018600065 -0.0039708233 0.0216701 -0.06202005 0.04292083 -0.032094873
-0.0062761344 0.051119678 0.022421094 0.045420695 -0.076641366 0.052001778 0.015772413 -0.010619171
0.019655421 0.06281557 0.024213936 0.08684483 0.045938928 -0.013018309 0.061402407 0.010941771
-0.03379812 0.013508594 0.007295483 -0.039725386 -0.048199143 0.0069504613 -0.038879447 -0.023283403
0.04359513 0.036526434 -0.0620966 -0.004170507 0.041313205 0.06518556 -0.082427606 -0.012674213
-0.016069243 0.034109388 0.010253476 -0.05163451 -0.03006222 0.07297353 0.020341927 0.04752408
-0.00091477 0.057620272 0.005346322 0.011293562 0.0218792 0.009730259 0.033414617 0.040507574
-0.03926644 -0.05007331 0.030822562 -0.0488273 0.07103496 0.09140875 -0.047496367 -0.012628708
-0.04561325 0.06786868 0.027980922 -0.0014941192 -0.05958593 -0.07219181 -0.028611796 0.09860647
-0.005207383 -0.015942233 0.058825854 -0.032631516 0.055333305 0.05935783 -0.032446895 -0.07849967
0.040203877 0.018845992 -0.045888852 -0.03854868 0.041984476 -0.011376558 -0.05767471 0.03147278
-0.00035427997 -0.007531635 0.027767653 -0.0129353665 0.016439702 -0.002225894 -0.041372508 -0.019517442
0.007961417 -0.0011456311 0.08243636 0.066806026 0.019266004 0.033639383 -0.035452973 -0.03644974
-0.046828642 0.0009682152 0.02231798 -0.038213067 0.036129072 -0.035402544 0.008749453 -0.039035734
-0.027978031 -0.03494011 0.018763823 0.04547655 0.02265644 0.063401446 -0.046536613 0.057888832
-0.02294039 -0.051688045 -0.04954947 0.014261339 -0.035237364 -0.06989471 -0.037474662 -0.051526368
-0.025154112 0.06547792 0.013776241 0.013262979 0.005131333 -0.06479077 -0.012705542 -0.0007075028
0.0073247524 -0.08599978 -0.024459444 0.046824053 -0.019790892 0.0034108362 0.03741757 -0.0007000939
-0.014112521 0.06458422 -0.0118054105 -0.039473772 -0.033959024 0.013364973 0.04605413 -0.03245377
-0.019161459 0.013009966 -0.027277345 0.02149405 -0.003619322 0.020470614 -0.029092638 0.041547474
0.020932356 0.015587172 0.075606704 0.01673567 -0.07667163 0.03936728 0.009476962 0.027057089
0.044124316 0.0024757928 0.0005571093 -0.122742765 0.05706087 0.04563848 -0.049372192 -0.118700095

fc1.bias f4 [128]
00000000: 2fb0 0f3d ad65 203c fcb1 2abd b6e7 9cbb
00000010: f265 67bd 6429 373c 418f 743d d6af ef3c
00000020: b068 ae3c cfe6 e63b 967a 2fbd 39a7 8b3c
00000030: e098 1c3c 8cd3 063c c5e5 febb fba5 49bd
00000040: fe70 063a 029e 40bd 13f8 0ebc 9858 383d
00000050: ea32 a63b a2ca 17bd c7ac d7bc ac1d 67bc
00000060: afe4 82bc fa8a 00bb 554d 5dbb 65ec dd39
00000070: 1ca6 efbc 404f 053d a0d3 2dbd 2d2d 223b
00000080: 6982 6dbd ca6d 41bd d1ed 403d 27e5 883c
00000090: 45a5 4fbd 8be0 2dbd 9d99 ce3c d231 6ebd
000000a0: ba0f 49bc 7c43 213d e38b f13c 6644 51bc
000000b0: 37c1 d1bc d9d8 88bc 21f0 e83b 756e 29bd
000000c0: 1571 5ebc 13a7 653d a146 c03c 0045 683c
000000d0: eb67 713d 50f6 00bd 03dd 0f3d 1f68 2e3d
000000e0: e7fb f73c eac7 2c3d 962a 6e3d 3eb8 08bd
000000f0: 2eb8 1fbd 03b5 17bc 3584 bc3c 12e0 e23c
00000100: dede e5bc 10b5 7f3d 94a1 4a39 7966 783d
00000110: 5888 453c eba7 cebc 9b05 4f3d 9f67 3abd
00000120: 260e 333c 6677 0fbb 294b 063d 32e5 4cbd
00000130: b1df 87bb 7530 0d3d 84e8 3a3c 1f2c 2f3b
00000140: b528 893d e9bd 2c3d 9e7a 743c f4c8 4fbd
00000150: 8a00 9bbc 0548 533d 29a0 bb3c a05c cabc
00000160: f0ff c23c 5fbe bebc 71a2 3d3d dfc7 d83c
00000170: 9169 56bb 6606 2fba 7fb6 d0bb 589e 083d
00000180: 40ea 0e3d 2910 163d 3252 ab3c d15d ccbb
00000190: b0d1 42bd 7868 45bc 99cd edbb 020c 1ebd
000001a0: b776 b4bc 4b31 013d 107a 053d 151c 7cbd
000001b0: 2542 68bd a185 fabc 3a55 483a 0765 5c3d
000001c0: c044 7cbd c191 30bd 6585 1fbc c023 bb3c
000001d0: 180b 5e3d 1dee d9bc 7009 42bc 7420 afbc
000001e0: b8e8 4bbc 2756 c5bc 0839 f7bc 16d0 30bd
000001f0: 24dd fb3c 9734 ee3c 6c6e 5ebd 76f0 a23c
0.03508013 0.009789866 -0.041673645 -0.0047883643 -0.056493707 0.011179302 0.05970693 0.02925865
0.021290153 0.0070465575 -0.042841516 0.017047511 0.009557933 0.008229148 -0.0077788555 -0.049230557
0.00051285315 -0.047025688 -0.008726138 0.045006365 0.0050719874 -0.03705848 -0.026327504 -0.014106195
-0.015978185 -0.0019614086 -0.0033768017 0.00042328532 -0.029254012 0.03254628 -0.04243815 0.0024746165
-0.057985697 -0.047223844 0.0471018 0.01671083 -0.050694723 -0.04245047 0.025219733 -0.05815298
-0.012271816 0.039371 0.029485648 -0.012772655 -0.025604827 -0.016704964 0.0071087037 -0.041365106
-0.013576766 0.056067538 0.023471178 0.014176607 0.058936995 -0.031484902 0.035122883 0.042579766
0.030271484 0.04218284 0.058146082 -0.033378832 -0.038994007 -0.009259465 0.02301226 0.027694736
-0.028060373 0.062428534 0.00019324414 0.0606446 0.012056433 -0.025226554 0.050542455 -0.045508977
0.010928666 -0.0021891235 0.032786522 -0.050023265 -0.004146539 0.03447004 0.011407975 0.002672918
0.066972174 0.0421733 0.014921812 -0.050728753 -0.018921155 0.051582355 0.022903519 -0.02470237
0.023803681 -0.023284135 0.046297494 0.026462493 -0.003271673 -0.00066766737 -0.0063694115 0.033354133
0.034891367 0.036636505 0.020913217 -0.0062367697 -0.047563255 -0.012048833 -0.007257175 -0.03858567
-0.022029264 0.03154115 0.03258711 -0.06155022 -0.056703705 -0.030581297 0.0007642094 0.053807285
-0.061589003 -0.04310775 -0.009736394 0.022844195 0.0542098 -0.0266028 -0.01184307 -0.02137778
-0.012445621 -0.024088932 -0.030178562 -0.043167196 0.030745097 0.029077811 -0.054304525 0.019890051

fc2.weight f4 [64, 128]
00000000: 0481 103d c9b3 54bd 4532 d3bc 30c3 103d
00000010: a3b8 4abd 8425 4bbd c2b3 afbb d6e0 8cbd
00000020: f1d2 24bc d229 c5bc fa09 993d f384 6e3d
00000030: db68 7dbc 9566 7cbc c17c 46bd 8272 a3bd
00000040: dfaf b5bd fd6d abbd 08c5 51bd 9562 4abd
00000050: 1c94 7e3b d7e5 653d cf28 a4bc 497d 98bd
00000060: 3345 c63c eeee 843c 7816 913d 2449 6dbd
00000070: 83f3 67bd fa3b 96bd 2e9b 443c 45e8 02bd
00000080: 06a2 bf3b 52b5 6c3c c9e9 9a3a f39c a3bd
00000090: e03e 4fbb 2f2a 84bd c80c cebc ccc4 00bd
000000a0: 2a33 0a3d f39e 4f3d 5010 bc3c 7d19 953d
000000b0: 6101 353d 2bf7 863d 0a16 79bd 7e4f 9ebd
000000c0: 8548 89bd fff9 e3bc 6045 82bb 16ff 103d
000000d0: fcbd 2fbc 133a a53d 9956 0d3c 0f60 53bb
000000e0: 0527 90bd 0300 443d 512b 2dbc 4b91 89bc
000000f0: 0dee 71bd cefc 0ebd 3d70 51bc a678 63bd
00000100: de7f 9f3c 360a 3bbd ff19 523d 0672 9abd
00000110: 8201 c33c 414d bd3c 1fe1 153d f115 173d
00000120: 8053 a93d 1aa7 9e3d 532a 81bb 3dca ebbc
00000130: 4933 ad3d dddb ecbc 8087 103c 491d a8bd
00000140: 1eba 86bc d118 b2bd 667e 233a 1be6 44bc
00000150: 2bed 36bd 29ec a33d 9866 9abc c940 313d
00000160: ec9a 213c df63 acbd b3b3 a4bd c8b4 03bc
00000170: 53e1 a23d ae6b 353d 44e7 7fbd 8407 92bc
00000180: 3621 523d 66d5 173d 4ae2 dcbc 845d 863d
00000190: 278b 70bc 593e 513d ee04 a53b 537f f3bc
000001a0: 7dee 933d 2cba aabd 9c50 33bd 24ce 8b3d
000001b0: 74b9 69bb a840 be3c 985f 073d a670 5f3d
000001c0: ee1e 813d 5c56 c0bc b3f1 81bc 2d50 56bd
000001d0: c427 063d 6e92 5dbd f2e7 3b3d 2182 aebd
000001e0: 458b e43c 5340 b7bc 12ee 47bd 7fe5 3a3d
000001f0: 7dc8 003d 5669 6b3d 5728 72bd d6c8 8abd
00000200: 50e2 bcbb 6666 4c3d 045a 743b 4061 afbd
00000210: 9d25 913d 8a3e ba3d ce4a 29bd f55a 00bd
00000220: eda5 3f3c 6bab f6bc 5288 2b3d 0552 49bd
00000230: 2963 66bd 7b1d 87bc 3d14 5cbd 0d1d 9dbd
00000240: d2e2 b13b e296 a6bd 7669 0e3d a6bc 4c3c
00000250: 5236 213d 7926 a83c 7670 46bd b6f9 cebc
00000260: 86fb acbd 5336 883d 1ec0 6abd 8066 a43d
00000270: 08d4 103c b197 c63c 05c2 42bd 9eb2 35bb
00000280: 06db aabd af6f 8abd 6fc4 3ebd 3337 6dbd
00000290: aa33 0d3d c9cd 51bd 4b0b c0bd 270a a43d
000002a0: 2174 a0bc 0c0f 013b 4dd6 72bd 297f 1abd
000002b0: c861 933d 5d99 7b3d d8d6 ab3d e0b1 053d
000002c0: ac01 0dbd ce06 ae3d 5b48 4cbd 4443 9ebd
000002d0: cb91 ba3b 65f2 64bd b9ad 2f3d 84c9 5abd
000002e0: c105 26bd faa3 a63c 9d61 9ebc eaba 9c3d
000002f0: 7ea3 9abd 223a 2d3d 58f4 1dbd 37b4 26bd
00000300: 65a3 0abc c110 0abc ce26 93bb 64c7 2fbd
00000310: 962e 10bd 6875 923d 2b62 9abd 1301 14bd
00000320: cdc5 b53d 1a98 993d 7282 9dbd 3dd8 43bd
00000330: b305 a33d e3ad b03d 3e9c a93d 107c d93c
00000340: 82e3 913c c544 aeba 2458 6a3d a25a a1bd
00000350: eb08 1b3d db72 203d 438a 1abd cec4 c7bc
00000360: 4168 1ebd 961d 0f3d ee88 7c3d 3f80 b13d
00000370: 6086 d4bc 0947 e2ba a15f a83d 1c8b e1bc
00000380: fbec a3bd 26d5 04bd d67c 333d f894 913d
00000390: a753 593d 15b6 cf3d 82f0 aabd 046f 41bb
000003a0: 1f96 213d 30ae 553d f999 c7bc aff9 6a3d
000003b0: 3a8b 5d3d c779 81bc 67eb 953c ac95 eb3c
000003c0: 6d81 863d 4b24 5ebd 1d6f 3e3c 32e8 48bd
000003d0: 4c20 e1bc 67ff 7dbd 2b89 5cbd f548 7cbd
000003e0: a2cf 443b e429 a5bc a7fd b2bd 4aae 643d
000003f0: bc07 003d 1993 593d 2740 80bd 8f7f 4d3d
0.03527929 -0.05192927 -0.025780806 0.035342395 -0.04949249 -0.049596325 -0.005362005 -0.068788216
-0.010060058 -0.024067793 0.07472606 0.05823226 -0.015466894 -0.015405317 -0.04845882 -0.07980825
-0.088714354 -0.08370588 -0.051213294 -0.04941042 0.0038845604 0.056127395 -0.02003899 -0.07445771
0.024202919 0.016227212 0.07084364 -0.05793108 -0.056628715 -0.07335658 0.011999888 -0.03195979
0.005848172 0.014447527 0.0011818941 -0.0798892 -0.003162317 -0.064533584 -0.025152579 -0.03143768
0.0337402 0.050688695 0.022956997 0.07280252 0.04419077 0.06590112 -0.060812034 -0.07730006
-0.06703285 -0.027829168 -0.0039755553 0.03539952 -0.010726448 0.080677174 0.0086266035 -0.00322533
-0.070386924 0.047851574 -0.0105694095 -0.016792914 -0.059064914 -0.034909062 -0.012783107 -0.05553498
0.019470152 -0.045664035 0.051294323 -0.075412795 0.02380443 0.023108127 0.036591645 0.03688616
0.082678795 0.07746716 -0.003941813 -0.028782958 0.084570475 -0.028913433 0.008821368 -0.08208711
-0.01644617 -0.086961396 0.00062367914 -0.012017752 -0.044659775 0.08004028 -0.018847749 0.043274675
0.009863596 -0.084174864 -0.080420874 -0.008038707 0.079531334 0.044292144 -0.06247641 -0.01782585
0.051301204 0.037068747 -0.026963372 0.065608054 -0.014681614 0.05108485 0.005035988 -0.029723799
0.072232224 -0.08336291 -0.043778047 0.068264276 -0.0035663517 0.02322419 0.03305015 0.05455079
0.063047275 -0.02347868 -0.015862321 -0.052322555 0.032752767 -0.054094724 0.045875497 -0.08520914
0.02789844 -0.02236954 -0.048811026 0.04562902 0.0314412 0.057473503 -0.059120502 -0.06776588
-0.0057642832 0.049902342 0.0037285099 -0.08563471 0.07087252 0.0909396 -0.041331105 -0.031336743
0.011697275 -0.030111035 0.041878052 -0.049150486 -0.05624691 -0.01649355 -0.05373024 -0.076715566
0.0054286504 -0.08134247 0.034768544 0.012496149 0.039358445 0.020526158 -0.048447095 -0.025265556
-0.08446412 0.066509865 -0.057312123 0.08027363 0.008839615 0.024242254 -0.047548313 -0.0027724872
-0.08342557 -0.06759583 -0.046574052 -0.05791397 0.0344731 -0.051221643 -0.09377154 0.08009749
-0.019586625 0.0019692807 -0.059286404 -0.037718926 0.07196385 0.061425555 0.083905876 0.032640338
-0.034425423 0.08497392 -0.04987369 -0.07727674 0.0056936494 -0.055895228 0.042890284 -0.053414837
-0.04053283 0.020341862 -0.019333655 0.076528385 -0.07550715 0.042291768 -0.038563102 -0.04069921
-0.008461808 -0.008426846 -0.00449071 -0.042914763 -0.035200678 0.071513 -0.07538255 -0.036133837
0.08875618 0.07499714 -0.07690896 -0.047813643 0.079600714 0.08626916 0.08281754 0.026548415
0.01780868 -0.0013295641 0.057212964 -0.07878615 0.0378503 0.039172035 -0.037729513 -0.024385836
-0.038673643 0.034940325 0.061654024 0.08667039 -0.025942981 -0.0017263602 0.08221365 -0.027532153
-0.08004185 -0.032429837 0.043820225 0.07108492 0.053058293 0.10142151 -0.083466545 -0.0029515633
0.039449807 0.05216807 -0.024365412 0.057367023 0.054087855 -0.015805138 0.018300725 0.028757893
0.06567655 -0.05423383 0.011623171 -0.049049564 -0.02748122 -0.06201115 -0.05384175 -0.061593015
0.0030030985 -0.020161577 -0.087397866 0.055830278 0.031257376 0.0531188 -0.06262236 0.050170477

fc2.bias f4 [64]
00000000: 31f3 873b 0574 96bd 6654 9abd d00b 983d
00000010: e5fd 843d 5bec 803c 3dfa dfbc 4a1d bdbc
00000020: af8a 10bd 0c67 43bc 05ef c33b db41 f23c
00000030: 5c47 49bc 0f50 393d c6df 8ebd c5bd 8a3a
00000040: 2c58 ad3d 54b3 a93d c73e a03b d743 9cbd
00000050: b2d1 9b3d d018 adbd 7d6f e93c 95e1 42bd
00000060: 7927 f4bc 6a46 7fbd 237e febc ca41 793c
00000070: 057e f5bc b514 b4bc 91a9 9bbd afec cc3c
00000080: ca24 89bd 9b65 e13a 1c15 983d 5b7c 533c
00000090: 0d4c 08bd 9aa4 e93d 557a 62bd 1cbe b3bc
000000a0: 5ace 1f3c a4f8 243d 6c34 95bd 6447 f83c
000000b0: 3c24 443d 89f1 303d 796e d4bc c63f f13d
000000c0: ff70 8b3c d7c7 4f3b b666 a23d 347c 843d
000000d0: dc2e c13d 411a 78bd 4f1b 933d a58e 153d
000000e0: 1f00 a9bb 3d63 91bc bec0 3ebd abc3 823d
000000f0: fedf 83bd 18f0 50bd d1b3 3e3d edce 86bd
0.0041488637 -0.07346348 -0.07535629 0.07424128 0.06493739 0.015737703 -0.027341003 -0.023085255
-0.03528851 -0.011926424 0.005979421 0.029572418 -0.01228508 0.045242365 -0.06976275 0.001058512
0.08464083 0.08286157 0.004890296 -0.07630127 0.076083556 -0.08451998 0.028495545 -0.047578413
-0.029803978 -0.06232301 -0.031066006 0.015213439 -0.029967317 -0.02198253 -0.076007016 0.025015203
-0.0669647 0.0017196418 0.07425901 0.012908067 -0.033275653 0.114083484 -0.055292446 -0.021941237
0.009753788 0.040276185 -0.07285389 0.03030748 0.04788612 0.043199096 -0.025931584 0.11779742
0.017021654 0.0031704807 0.07929747 0.06469002 0.09432766 -0.060571913 0.07182943 0.03651299
-0.005157485 -0.017747516 -0.046570532 0.06384977 -0.064392075 -0.05101022 0.046558205 -0.06582437

fc3.weight f4 [10, 64]
00000000: f9f3 c4bd 769f b1bd 937a 99bc 6018 593d
00000010: c151 8f3e 53e0 af3a 15b6 c03d c483 883d
00000020: b254 0dbd c9c2 02bc 4e5a 6cbe d100 0c3d
00000030: c98e 083e a067 a2bd 7588 ce3d cd10 2fbe
00000040: 0f4d 17be dec9 52be c9e4 dcbd 8696 f0bd
00000050: 8ed4 be3d 286e f3bd e5ec 363d d1e5 8abd
00000060: 870d 203d 4f2f 633b 1c70 153d 39e2 683e
00000070: 9748 a93e 7e10 ac3d fa36 523d 0497 bcbc
00000080: 45f4 aebd b59e 13bd 2b83 6ebe 0aa0 853d
00000090: f3ba f23b 2c3f d03d e092 f53d daa4 203c
000000a0: 50a6 98bd 1075 76bd 6aa5 763d 3d89 df3d
000000b0: f5c1 c43d f487 0a3d fcd6 91bd c86e 3e3e
000000c0: 9d54 9e3c a0e9 e53d 2d24 e23c 87ea 95be
000000d0: 3dfe dcbd b0c9 0ebd 968f e5bc b728 a33d
000000e0: 1fcd f9bd b2e2 153c 1397 bd3d 7941 dd3d
000000f0: 5033 8f3d 4b35 f1bd 6901 f5bd c3b9 65bd
00000100: 13c1 983d 4e65 d83c 1abb 703e bf45 f6bd
00000110: 5e93 a13d a179 4dbd 5fc7 213d 5d3a 65bd
00000120: 553e 143d b298 273e b772 6f3e 3dc0 c7bd
00000130: bc3f 9d3e a051 2ebd 4d37 9fbc a997 0d3c
00000140: f57b 0a3d a2df 3abe 6af1 e53d 390c 4a3d
00000150: 3a13 473d 92fd e73d 843b 013e a5a9 303e
00000160: 2396 033e 474d 8dbd 7197 84be 6aa6 b43d
00000170: 0047 a1bb 81b0 61bd 381b f03d 2e67 67be
00000180: 7f7d b6bd 2510 f53c 07f0 eb3d 8cd2 e6bd
00000190: 109a 34bd 36cb 83be 8f47 aebd 7e73 37bd
000001a0: 7d95 dbbd d97a ac3a 8a45 f9bd 3e21 093e
000001b0: 4012 f23d 4cf0 94bd ca7a cb3d 69be 8abd
000001c0: 1d2c b5be 82e0 743e c350 833e 86c3 1a3e
000001d0: 7f1e 54bd eb9f ac3b 4587 d3bd c6aa a93d
000001e0: 4981 d8bd d2ea 64be f05d e13d ba66 93bc
000001f0: a058 cb3b 8fa7 9e3d 8794 ad3d b583 d83d
00000200: 31aa d83d ff16 8ebd d65d 22be 94d7 80bd
00000210: 1064 3ebd 3e41 34bd 2efa e23d cbaf 233e
00000220: bb3f 0f3e e9a2 ce3b 8e90 033e 7d62 aebc
00000230: 6c87 553d f79e 38bd 1933 0abd 955c aabd
00000240: 076b e53d 6fd7 25bd ee82 23be a3e1 d63d
00000250: bc65 503e 932d a23d 83f5 ddbd 4ae7 423d
00000260: 9846 f7bd 617a a03e 18b6 2dbe 8c6f 84bd
00000270: c862 733e 5281 cd3d 2907 b7bd eb37 48be
00000280: 9675 9abd d8c9 8f3e afbe 93bd 5334 c7bd
00000290: 8759 b9bc 85a3 393e 6eb1 71bd 6fb7 21be
000002a0: 7ef3 283d 376e 953d 9a5d 6dbd 91b2 07be
000002b0: 2b29 833d 0180 413e 4640 5c3c 58c1 133d
000002c0: c03e b4be 9a00 8cbe 18ba 02be e230 023e
000002d0: 1a3e 03be 54d0 113e f58b 983d ccbf 8f3e
000002e0: 8288 913d d9e0 323e 889a 593d 7f8b 54be
000002f0: f9d5 7fbd cd45 dd3d 8e04 0b3d 819f a63d
00000300: 70c0 683d 9e97 8abd 3265 203b d5dc cbbd
00000310: 5dd5 4ebe 0a9a 9a3c 6cd1 9f3c 4553 38bd
00000320: a6ce 33be 6bb1 1cbe 1aba be3d 000b a2be
00000330: 5c1c 87bd 005c cc3d b6a8 79bd 57f1 0abd
00000340: a70c 193e 56cc b03c 459c 05be 6e34 27be
00000350: ac27 603e 9a9f 193c b3e0 0fbd e3c6 893e
00000360: b6e5 dfbd 786c 40be 6cc1 2e3e 1ba2 0b3e
00000370: 9996 64be 8066 97bd 2c9d 7e3c 93d6 89be
00000380: ae2b a5bc 916c acbd c908 133e 882c ca3d
00000390: ce64 6ebd d97c ed3d 3e86 12be db2e 33be
000003a0: a9dc b03d 575c 27be 03c6 5b3d bd59 6a3e
000003b0: 4b85 7b3d 106c 733d 70b3 ee3d 0d0e 61be
000003c0: 6d79 8c3e ac61 39be 4e6a 1b3e 8de1 82be
000003d0: 3650 43be 18a8 c0bc a674 82bd 9fd0 5a3e
000003e0: 06fb e6bd 4916 10bc 42df 95bd c7a1 933e
000003f0: e53b 9c3d fe20 14bd 88be d6bd 108c a4bd
-0.096168466 -0.08672993 -0.018735206 0.05300176 0.2799206 0.0013418294 0.094097294 0.06665757
-0.0345046 -0.007981011 -0.23081324 0.034180466 0.13335718 -0.07929921 0.10084621 -0.17096253
-0.1477549 -0.20584819 -0.10785825 -0.1174746 0.09317885 -0.11886245 0.044659514 -0.06782115
0.0390754 0.003466565 0.03648387 0.22742547 0.33063194 0.08401583 0.05132196 -0.023021229
-0.085426845 -0.036040027 -0.23292224 0.06524666 0.00740754 0.10168299 0.11990905 0.009804929
-0.074535966 -0.060170233 0.060216345 0.10914848 0.09607307 0.03382106 -0.07121083 0.18596947
0.019327456 0.11226201 0.02760514 -0.29280493 -0.107906796 -0.034860313 -0.028022569 0.0796675
-0.12197327 0.009148287 0.09257331 0.108035035 0.06992209 -0.11777743 -0.119631596 -0.05608536
0.07458701 0.026415493 0.23508874 -0.12025022 0.07889436 -0.050164822 0.039496776 -0.055963863
0.036192257 0.16366842 0.23383604 -0.097534634 0.30712688 -0.042558312 -0.01943555 0.008642116
0.03380962 -0.18249372 0.11227687 0.049328063 0.04860232 0.113276616 0.1262036 0.17252214
0.12850241 -0.06899505 -0.2589679 0.088208035 -0.004921794 -0.055099968 0.117239416 -0.22597954
-0.08910655 0.029914925 0.11520391 -0.112706274 -0.044092238 -0.25740975 -0.085097425 -0.044787876
-0.10721872 0.001315917 -0.12171467 0.13391587 0.11819887 -0.072723955 0.099355295 -0.06774599
-0.35385218 0.23913768 0.25647554 0.15113649 -0.051786896 0.005268087 -0.10328535 0.082845256
-0.10571534 -0.22355202 0.11004245 -0.01799332 0.0062056333 0.07746803 0.08475595 0.10571996
0.105793364 -0.0693798 -0.15856108 -0.06291118 -0.046482146 -0.044007532 0.11082874 0.15985028
0.13989155 0.0063060415 0.12848112 -0.021287197 0.0521311 -0.045073476 -0.033740137 -0.0831844
0.112020545 -0.040488657 -0.15967914 0.104922555 0.20351309 0.07918849 -0.10837843 0.047583856
-0.120740116 0.31343368 -0.16963995 -0.064665884 0.23768151 0.100344315 -0.089369126 -0.19552581
-0.07541959 0.28083682 -0.072141044 -0.09726777 -0.022625698 0.18128784 -0.0590071 -0.1579263
0.041247837 0.072964124 -0.057950594 -0.13251711 0.064043365 0.18896486 0.013443058 0.03607306
-0.35204124 -0.2734421 -0.12766302 0.1271396 -0.12816659 0.14239627 0.0744857 0.28076017
0.07106115 0.17468585 0.053125888 -0.20756339 -0.06245992 0.10804329 0.03393989 0.08135892
0.056824148 -0.067672 0.002447438 -0.0995423 -0.20198579 0.01887228 0.01950904 -0.045001287
-0.17559299 -0.15302055 0.0931284 -0.31649017 -0.06597206 0.09978485 -0.06095191 -0.033921566
0.14946233 0.02158181 -0.13047893 -0.16328594 0.21890134 0.009376431 -0.0351264 0.2690955
-0.10932486 -0.18791378 0.17065972 0.13636057 -0.22323073 -0.07392597 0.015540402 -0.2692152
-0.02016243 -0.08419145 0.1435882 0.09871775 -0.058201604 0.115960784 -0.14309022 -0.17498343
0.086358376 -0.16343819 0.053655636 0.22885795 0.061406415 0.05942923 0.11655319 -0.21978016
0.2743639 -0.18103665 0.15177271 -0.25562707 -0.19073567 -0.023517653 -0.06369905 0.21368645
-0.11278348 -0.008794376 -0.07317974 0.28834364 0.076286115 -0.036164276 -0.1048556 -0.08034527

fc3.bias f4 [10]
00000000: 3abc 82bd 3365 f5bc 9c3c f13d 761c 153e
00000010: 649a a23c 2c75 1bbd df86 05be ff33 15be
00000020: 4fc6 05bc b091 1d3c
-0.063835576 -0.029955482 0.117791384 0.14561638 0.01984901 -0.03795354 -0.1303973 -0.14570616
-0.008164956 0.009617254
